name: "validNet"
input: "data"
input_dim: 1
input_dim: 3
input_dim: HEIGHT
input_dim: WIDTH
layer {
  name: "conv1"
  type: "Convolution"
  bottom: "data"
  top: "conv1"
  param {
    lr_mult: 1
  }
  param {
    lr_mult: 1
  }
  convolution_param {
    num_output: 128
    kernel_size: 3
    stride: 1
    weight_filler {
      type: "xavier"
    }
    bias_filler {
      type: "constant"
    }
  }
}
#layer {
#  name: "relu1"
#  type: "ReLU"
#  bottom: "conv1"
#  top: "conv1"
#}
layer {
  name: "pool1"
  type: "Pooling"
  bottom: "conv1"
  top: "pool1"
  pooling_param {
    pool: MAX
    kernel_size: 2
    stride: 2
  }
}
layer {
  name: "conv2"
  type: "Convolution"
  bottom: "pool1"
  top: "conv2"
  param {
    lr_mult: 1
  }
  param {
    lr_mult: 1
  }
  convolution_param {
    num_output: 64
    kernel_size: 3
    stride: 1
    weight_filler {
      type: "xavier"
    }
    bias_filler {
      type: "constant"
    }
  }
}
#layer {
#  name: "relu2"
#  type: "ReLU"
#  bottom: "conv2"
#  top: "conv2"
#}
layer {
  name: "pool2"
  type: "Pooling"
  bottom: "conv2"
  top: "pool2"
  pooling_param {
    pool: MAX
    kernel_size: 2
    stride: 2
  }
}
layer {
 name: "conv3"
 type: "Convolution"
 bottom: "pool2"
 top: "conv3"
 param {
   lr_mult: 1
 }
 param {
   lr_mult: 1
 }
 convolution_param {
   num_output: 64
   kernel_size: 3
   stride: 1
   weight_filler {
     type: "xavier"
   }
   bias_filler {
     type: "constant"
   }
 }
}
#layer {
#  name: "relu3"
#  type: "ReLU"
#  bottom: "conv3"
#  top: "conv3"
#}
layer {
 name: "pool3"
 type: "Pooling"
 bottom: "conv3"
 top: "pool3"
 pooling_param {
   pool: MAX
   kernel_size: 2
   stride: 2
 }
}
layer {
 name: "conv4"
 type: "Convolution"
 bottom: "pool3"
 top: "conv4"
 param {
   lr_mult: 1
 }
 param {
   lr_mult: 1
 }
 convolution_param {
   num_output: 32
   kernel_size: 3
   stride: 1
   weight_filler {
     type: "xavier"
   }
   bias_filler {
     type: "constant"
   }
 }
}
# layer {
#  name: "relu4"
#  type: "ReLU"
#  bottom: "conv4"
#  top: "conv4"
# }
layer {
 name: "pool4"
 type: "Pooling"
 bottom: "conv4"
 top: "pool4"
 pooling_param {
   pool: MAX
   kernel_size: 2
   stride: 2
 }
}
layer {
  name: "ip"
  type: "InnerProduct"
  bottom: "pool4"
  top: "ip"
  param {
    lr_mult: 1
  }
  param {
    lr_mult: 1
  }
  inner_product_param {
    num_output: 1000
    weight_filler {
      type: "gaussian"
      std: 0.001
    }
    bias_filler {
      type: "constant"
    }
  }
}
layer {
  name: "relu"
  type: "ReLU"
  bottom: "ip"
  top: "ip"
}
layer {
  name: "ip0"
  type: "InnerProduct"
  bottom: "ip"
  top: "ip0"
  param {
    lr_mult: 1
  }
  param {
    lr_mult: 1
  }
  inner_product_param {
    num_output: 62
    weight_filler {
      type: "gaussian"
      std: 0.001
    }
    bias_filler {
      type: "constant"
    }
  }
}
layer {
  name: "ip1"
  type: "InnerProduct"
  bottom: "ip"
  top: "ip1"
  param {
    lr_mult: 1
  }
  param {
    lr_mult: 1
  }
  inner_product_param {
    num_output: 62
    weight_filler {
      type: "gaussian"
      std: 0.001
    }
    bias_filler {
      type: "constant"
    }
  }
}
layer {
  name: "ip2"
  type: "InnerProduct"
  bottom: "ip"
  top: "ip2"
  param {
    lr_mult: 1
  }
  param {
    lr_mult: 1
  }
  inner_product_param {
    num_output: 62
    weight_filler {
      type: "gaussian"
      std: 0.001
    }
    bias_filler {
      type: "constant"
    }
  }
}
layer {
  name: "ip3"
  type: "InnerProduct"
  bottom: "ip"
  top: "ip3"
  param {
    lr_mult: 1
  }
  param {
    lr_mult: 1
  }
  inner_product_param {
    num_output: 62
    weight_filler {
      type: "gaussian"
      std: 0.001
    }
    bias_filler {
      type: "constant"
    }
  }
}
layer {
  name: "prob0"
  type: "Softmax"
  bottom: "ip0"
  top: "prob0"
}
layer {
  name: "prob1"
  type: "Softmax"
  bottom: "ip1"
  top: "prob1"
}
layer {
  name: "prob2"
  type: "Softmax"
  bottom: "ip2"
  top: "prob2"
}
layer {
  name: "prob3"
  type: "Softmax"
  bottom: "ip3"
  top: "prob3"
}
